best_cnn_model.pth (torch, 970613 bytes, 10 tensors)

conv1.weight f4 [32, 1, 3, 3]
-0.49410188 -0.15780899 -0.22793059 -0.096187934 0.3912768 0.3254193 0.062781855 0.22836374
-0.14583202 -0.0155414585 -0.4724189 0.0415446 0.29324943 -0.34537822 -0.33139896 0.42309877
0.2604987 -0.060293037 -0.0074768183 0.26945922 -0.1871217 0.10542863 0.024464283 -0.44043386
0.10613447 0.26257357 0.108950235 0.061200965 -0.34563476 0.113520235 0.1520845 0.06569009
0.106786884 0.06509752 -0.26535216 0.122978784 -0.37710834 0.23952612 0.01800508 0.23979086
0.25818512 -0.02618143 -0.030602489 -0.057182133 -0.34365138 0.2139308 -0.26448682 0.10049947
0.14376007 0.26021284 0.34450048 -0.42439446 -0.04973314 -0.37265384 -0.3179897 0.13259481
0.20913346 0.30691466 0.13305004 0.16600078 0.23288459 -0.09649945 -0.29393688 0.33088404
0.0639284 0.40947616 -0.17932542 0.27478382 -0.050247904 -0.4621206 -0.49177024 -0.18771046
-0.4271027 0.22625364 -0.24259502 -0.22558261 0.23786642 0.16225377 0.17708817 0.15929927
0.25559795 -0.0674344 0.22110294 0.2957735 -0.030548634 0.02140625 -0.0202249 0.28908935
0.28318352 -0.41730785 0.3718531 -0.4487087 -0.1567147 0.0765233 -0.2999983 0.04557322
0.37733755 0.09434067 -0.092922494 0.3006019 0.3449532 0.096843295 -0.40655205 -0.48370144
-0.37058875 -0.25842434 0.13707365 0.14102425 -0.0986902 -0.25961092 0.25677404 0.30337712
0.34470192 0.007103421 -0.0072979396 -0.15792774 -0.4329442 -0.25784376 0.19021404 0.010658199
-0.24658719 0.12420875 0.18428707 0.16910592 0.15554857 -0.352813 -0.26974648 -0.43071604
-0.41606557 0.016254747 0.019448662 0.013743895 0.3643975 0.27305445 0.42398214 -0.3513304
-0.07000937 -0.33689147 -0.3049379 -0.25298357 -0.36344922 -0.25057122 -0.12345595 0.15038133
0.20268731 0.34327862 -0.20951213 0.32957217 -0.15715416 -0.39067063 -0.2178494 -0.308335
-0.10765615 -0.21471782 -0.4073141 -0.46373323 0.31398407 0.29181165 0.28828025 -0.12703623
0.044373285 0.083781146 0.037219994 0.07518357 -0.25237888 -0.35220203 -0.2324744 -0.36057276
-0.34742782 -0.39609665 -0.13166209 -0.01415381 -0.39762515 0.18167092 -0.4018945 0.10510692
0.21638611 -0.14372845 0.26744428 0.28655496 -0.29574922 -0.15135986 0.38208282 0.053611737
-0.21929461 0.019858435 0.19408435 -0.26708832 0.25071278 0.24472967 0.28934127 0.07992113
0.020924663 0.14832713 -0.16889802 -0.19873644 -0.22099155 -0.22043926 0.033086676 0.25025296
0.35606304 -0.21193556 -0.2821294 0.14594088 -0.14263855 -0.33100757 0.08069856 0.044980034
0.30429727 -0.2636149 0.22517148 -0.07515577 0.031137627 -0.12910417 0.3069627 0.124667495
0.06650743 0.30885276 -0.18356396 -0.24103051 0.3103476 0.25945598 -0.2573004 -0.25111118
-0.03566288 0.16578756 -0.34265545 -0.27710906 0.28602248 0.25315854 0.35199705 0.16185331
-0.03263634 -0.2519308 0.046870932 0.17511839 0.40255073 0.3442335 -0.027878432 -0.21778545
-0.35476834 -0.348032 -0.040908728 0.3347344 0.33722365 -0.22938798 -0.10388419 -0.11815701
-0.5090253 -0.30780432 -0.31320494 -0.22009654 -0.19403356 -0.46927506 0.22536665 -0.04623768
00000000: ecfa fcbe ae98 21be a366 69be 2efe c4bd
00000010: 6f55 c83e 5c9d a63e c693 803d 2fd8 693e
00000020: fd54 15be 9aa1 7ebc e4e0 f1be ac2a 2a3d
00000030: ca24 963e 6ad5 b0be 20ad a9be 67a0 d83e
00000040: 1660 853e d5f5 76bd 1900 f5bb 8ff6 893e
00000050: d59c 3fbe f7ea d73d 5269 c83c 8c80 e1be
00000060: 075d d93d 0b70 863e 4d21 df3d ddad 7a3d
00000070: 0af7 b0be 4c7d e83d 0abc 1b3e 8788 863d
00000080: 15b3 da3d d951 853d 3ddc 87be 4ddc fb3d
00000090: 5814 c1be 5646 753e 647f 933c bc8b 753e
000000a0: d730 843e 707a d6bc 12b2 fabc d037 6abd
000000b0: 13f3 afbe ad10 5b3e d16a 87be abd2 cd3d
000000c0: d735 133e 9e3a 853e 5e62 b03e 3b4a d9be
000000d0: fab4 4bbd 7ccc bebe 8ccf a2be efc6 073e
000000e0: 1527 563e eb23 9d3e 453e 083e 1cfc 293e
000000f0: 4c79 6e3e 81a1 c5bd e57e 96be a269 a93e
00000100: e5ec 823d dca6 d13e 15a1 37be 77b0 8c3e
00000110: bfd0 4dbd 129b ecbe 4fc9 fbbe 2c37 40be
00000120: 35ad dabe 09af 673e d46a 78be 21ff 66be
00000130: 4193 733e da25 263e 9a56 353e 591f 233e
00000140: bcdd 823e 0c1b 8abd cf68 623e a06f 973e
00000150: 2141 fabc 295c af3c b1ae a5bc 8503 943e
00000160: 6efd 903e 60a9 d5be 8863 be3e 26bd e5be
00000170: d179 20be 3fb8 9c3d 6199 99be fcaa 3a3d
00000180: 6332 c13e ae35 c13d 264e bebd 7ee8 993e
00000190: b59d b03e c755 c63d 9727 d0be b7a7 f7be
000001a0: cfbd bdbe 3250 84be 095d 0c3e a968 103e
000001b0: 161e cabd b9eb 84be e377 833e 3f54 9b3e
000001c0: c57c b03e d0c3 e83b 8e23 efbb cfb7 21be
000001d0: ddaa ddbe 1904 84be 78c7 423e ba9f 2e3c
000001e0: 5a81 7cbe 2861 fe3d c0b5 3c3e 1a2a 2d3e
000001f0: 2048 1f3e e8a3 b4be 361c 8abe d086 dcbe
00000200: 8c06 d5be ad28 853c cd52 9f3c 132e 613c
00000210: 4f92 ba3e cbcd 8b3e 3014 d93e 94e1 b3be
00000220: 1361 8fbd 0a7d acbe d220 9cbe 1087 81be
00000230: 0416 babe df4a 80be 79d6 fcbd 90fd 193e
00000240: 438d 4f3e 37c2 af3e 598a 56be afbd a83e
00000250: 05ed 20be fb05 c8be ea13 5fbe 16de 9dbe
00000260: d47a dcbd fdde 5bbe 798b d0be 716e edbe
00000270: 85c2 a03e 5668 953e 7899 933e c915 02be
00000280: c3c0 353d 7395 ab3d fe73 183d d8f9 993d
00000290: ce37 81be d353 b4be c50d 6ebe fe9c b8be
000002a0: 0fe2 b1be 2ecd cabe 6dd2 06be 62e5 67bc
000002b0: 8695 cbbe f107 3a3e 1ec5 cdbe 4c42 d73d
000002c0: 5294 5d3e 8d2d 13be 75ee 883e 55b7 923e
000002d0: 716c 97be 14fe 1abe 5ca0 c33e fb97 5b3d
000002e0: c48e 60be 28ae a23c 0cbe 463e cdbf 88be
000002f0: 6d5d 803e 6a9a 7a3e 8a24 943e b0ad a33d
00000300: 336a ab3c 11e3 173e 9af3 2cbe 9181 4bbe
00000310: 9c4b 62be d4ba 61be e585 073d 2821 803e
00000320: e54d b63e a305 59be 4473 90be 8771 153e
00000330: d70f 12be d379 a9be 4945 a53d fc3c 383d
00000340: dacc 9b3e 88f8 86be 5a93 663e 45eb 99bd
00000350: 5614 ff3c e233 04be 372a 9d3e ac51 ff3d
00000360: 0c35 883d f321 9e3e 31f8 3bbe b4d0 76be
00000370: e1e5 9e3e 6ad7 843e e1bc 83be a591 80be
00000380: 3d13 12bd 37c4 293e 8970 afbe 3de1 8dbe
00000390: 8a71 923e ff9d 813e f538 b43e e0bc 253e
000003a0: afad 05bd 13fd 80be bcfb 3f3d 3c52 333e
000003b0: 211b ce3e 603f b03e 4f61 e4bc 2603 5fbe
000003c0: 32a4 b5be 4031 b2be e98f 27bd 4f62 ab3e
000003d0: 94a8 ac3e afe4 6abe 3cc1 d4bd 4dfc f1bd
000003e0: 7b4f 02bf 8798 9dbe 665c a0be fd60 61be
000003f0: bcb0 46be d244 f0be 84c6 663e b963 3dbd

conv1.bias f4 [32]
-0.062415775 0.013626878 0.05395618 0.01797012 -0.03590317 -0.022670552 -0.31336126 -0.22826181
0.11668382 0.090974815 -0.10875732 -0.18491282 -0.015850492 -0.0022833252 -0.21131134 0.19845825
0.20117666 0.18046491 0.012251867 -0.29177794 -0.019635428 -0.023060689 -0.08071532 0.14723307
-0.14018346 -0.052924294 -0.03779422 -0.14275661 -0.1302426 0.006126534 -0.033022773 -0.0060923067
00000000: afa7 7fbd 4543 5f3c 2801 5d3d 1336 933c
00000010: 340f 13bd 98b7 b9bc e370 a0be 77bd 69be
00000020: edf7 ee3d 0151 ba3d 28bc debd c959 3dbe
00000030: e4d8 81bc d7a3 15bb 0062 58be a438 4b3e
00000040: 4101 4e3e cbcb 383e 0ebc 483c eb63 95be
00000050: 7ada a0bc c5e9 bcbc 134e a5bd 44c4 163e
00000060: 418c 0fbe 25c7 58bd 1dce 1abd ca2e 12be
00000070: 515e 05be 18c1 c83b e342 07bd f9a1 c7bb

conv2.weight f4 [64, 32, 3, 3]
0.021385647 0.0071103266 0.11945515 0.07291063 -0.052949045 -0.017423734 0.022694057 -0.06484887
-0.022905614 -0.10862012 -0.027692145 -0.099806935 -0.16196448 -0.02566854 -0.05352519 -0.10929274
0.0514093 0.0009005842 0.006016668 -0.028516773 0.06183024 -0.013884225 0.113769844 -0.008941605
0.07737817 -0.023382839 0.057519447 0.022609366 -0.010651513 0.079443775 0.07547722 -0.030827602
-0.011225079 0.048564877 0.06771842 0.07615925 -0.10749546 0.09600977 0.15474896 0.07927202
0.040023997 0.039843306 -0.07284647 -0.06593241 0.05335207 -0.008881722 0.09305387 0.035344876
-0.0017112389 -0.019253692 0.03427787 0.07869885 0.021690665 0.10975083 -0.03078898 0.013461163
0.07944428 0.017977126 0.04913969 0.005450448 0.010130856 0.03770461 0.08279858 -0.087928064
-0.21925811 0.051834017 -0.023014417 -0.0837073 -0.024718141 -0.07193545 -0.033557646 0.05576692
0.0527486 0.010005887 0.061491106 0.025674703 0.030033171 0.034765515 -0.0025294232 0.012113635
-0.05339877 0.048707627 0.07178818 0.063148454 0.024449969 0.00405457 -0.058940995 -0.052351665
-0.028091561 -0.014018546 0.05456974 0.08899687 0.038312126 -0.009646629 0.06294037 0.017007539
-0.07553734 0.042419154 -0.008425795 -0.1312018 -0.28097877 -0.039612774 -0.16834599 -0.15858956
-0.043754544 -0.029784836 -0.017527381 0.022236994 -0.10068316 0.052646127 0.09543771 -0.023640666
-0.0762068 0.043681655 -0.01189736 -0.049089547 0.098591186 -0.040446922 0.058168575 0.09487052
0.07531422 0.024843952 0.02287114 -0.053770047 -0.031115266 -0.028852195 -0.05989659 -0.009636865
0.022218376 -0.050087806 -0.17057396 -0.029607102 -0.24152863 -0.105459295 -0.029722419 -0.054318354
-0.113671266 -0.24817657 -0.12049652 -0.1842018 -0.10259273 -0.094684266 -0.2116811 -0.12538071
-0.022867048 -0.18050912 -0.03419074 -0.16740194 -0.27510336 -0.14031956 -0.089804925 -0.23741944
-0.10860432 -0.08000402 -0.037027836 0.05283104 -0.008252834 -0.08440095 -0.066683 -0.0425168
-0.02880585 -0.012463446 -0.04570639 -0.052015986 -0.19991349 -0.17732787 -0.18546696 -0.20796868
-0.10823037 -0.25919086 -0.23249277 0.05997141 -0.049874164 0.07235305 0.04755395 -0.08552483
0.054371655 0.058295954 -0.039680388 -0.019072233 0.070118 -0.0590877 0.019665357 0.08468018
0.035790604 0.110151805 0.09109575 -0.04886668 0.025196947 -0.07154256 -0.14134523 0.09984261
-0.08865466 -0.1606747 -0.06251122 -0.09037746 -0.08608492 0.07634288 0.09862532 -0.041824903
0.063755244 0.11853109 -0.016578905 -0.03239973 0.15517089 0.06646973 -0.0025981916 0.03766164
0.05583829 0.0061025387 -0.0019822621 0.119124874 0.03092545 0.044229947 0.0661075 0.035234895
0.06223105 0.012244636 -0.036244422 0.09056984 -0.079337046 -0.0141144665 0.114528514 0.06444789
-0.0016558626 7.9786536e-05 0.0945828 0.023693627 -0.048647277 -0.043687604 -0.012045622 -0.03092511
0.071598284 0.08176694 -0.086488396 -0.12212028 0.18451847 -0.0151157 -0.09210455 -0.015494937
-0.053811282 -0.043031298 0.061657917 -0.076200716 -0.22427881 -0.19366755 -0.28844085 -0.26173058
-0.1354868 -0.14381123 -0.1848393 -0.0700348 0.084241256 0.15936843 0.16783513 0.13146578
00000000: f430 af3c befd e83b e7a4 f43d 2b52 953d
00000010: 19e1 58bd 38bc 8ebc e3e8 b93c 7ccf 84bd
00000020: 8ea4 bbbc 3a74 debd a3da e2bc 9467 ccbd
00000030: 04da 25be d446 d2bc 3b3d 5bbd dfd4 dfbd
00000040: 8f92 523d 2f15 6c3a 7827 c53b 029c e9bc
00000050: b541 7d3d a97a 63bc 2a00 e93d cf7f 12bc
00000060: 7278 9e3d 5e8d bfbc 8399 6b3d 4737 b93c
00000070: af83 2ebc 6bb3 a23d cd93 9a3d 2b8a fcbc
00000080: 65e9 37bc f7eb 463d f4af 8a3d 62f9 9b3d
00000090: 9426 dcbd c5a0 c43d 8376 1e3e 5e59 a23d
000000a0: 34f0 233d bc32 233d 8830 95bd 9207 87bd
000000b0: b387 5a3d a484 11bc 0793 be3d cac5 103d
000000c0: a64b e0ba ebb9 9dbc f466 0c3d dd2c a13d
000000d0: 9fb0 b13c 0bc5 e03d 2c39 fcbc 368c 5c3c
000000e0: afb3 a23d c444 933c b346 493d ac99 b23b
000000f0: e4fb 253c 2670 1a3d 4d92 a93d a113 b4bd
00000100: 3385 60be e84f 543d bb88 bcbc bc6e abbd
00000110: b37d cabc e552 93bd be73 09bd db6b 643d
00000120: ea0e 583d bbef 233c 19de 7b3d c153 d23c
00000130: 2008 f63c 4966 0e3d aec4 25bb 4578 463c
00000140: abb8 5abd a681 473d ae05 933d fa53 813d
00000150: 4d4b c83c 33dc 843b 1d6c 71bd b36e 56bd
00000160: 4620 e6bc 0bae 65bc 8584 5f3d fe43 b63d
00000170: 2ded 1c3d e50c 1ebc e1e6 803d 6553 8b3c
00000180: 52b3 9abd b5bf 2d3d 580c 0abc c459 06be
00000190: 73dc 8fbe 0141 22bd e462 2cbe 4d65 22be
000001a0: f737 33bd 54ff f3bc 9595 8fbc 5b2a b63c
000001b0: f932 cebd 77a3 573d d974 c33d 12aa c1bc
000001c0: 5012 9cbd 89eb 323d 25ed 42bc 1f12 49bd
000001d0: 2dea c93d acab 25bd 2c42 6e3d 7a4b c23d
000001e0: 573e 9a3d 8b85 cb3c 425c bb3c fb3d 5cbd
000001f0: 71e5 febc 705b ecbc 2056 75bd f1e3 1dbc
00000200: 5003 b63c df28 4dbd f1aa 2ebe 988a f2bc
00000210: 4853 77be 0bfb d7bd 6e7c f3bc ec7c 5ebd
00000220: 7bcc e8bd 0022 7ebe e1c6 f6bd 669f 3cbe
00000230: 231c d2bd d3e9 c1bd eec2 58be cd63 00be
00000240: ad53 bbbc 62d7 38be 970b 0cbd 6a6b 2bbe
00000250: 59da 8cbe eeaf 0fbe a5eb b7bd 151e 73be
00000260: f16b debd 26d9 a3bd 80aa 17bd 5c65 583d
00000270: e536 07bc 68da acbd 1991 88bd 1926 2ebd
00000280: 3ffa ebbc 7b33 4cbc a036 3bbd b70e 55bd
00000290: 1fb6 4cbe 7095 35be 0deb 3dbe bef5 54be
000002a0: e2a7 ddbd aab4 84be 9612 6ebe 95a4 753d
000002b0: da48 4cbd d62d 943d eec7 423d a427 afbd
000002c0: d0b4 5e3d bdc7 6e3d e787 22bd 5f3d 9cbc
000002d0: 079a 8f3d f205 72bd 3e19 a13c cd6c ad3d
000002e0: 2b99 123d 4597 e13d 6990 ba3d 6e28 48bd
000002f0: d469 ce3c e884 92bd cebc 10be 487a cc3d
00000300: 9390 b5bd e987 24be e205 80bd d117 b9bd
00000310: 4a4d b0bd a859 9c3d 12fc c93d 9750 2bbd
00000320: 1c92 823d 6ec0 f23d 7cd0 87bc 94b5 04bd
00000330: 1ee5 1e3e 4821 883d 6c46 2abb 1843 1a3d
00000340: b1b6 643d cef7 c73b d7e8 01bb bef7 f33d
00000350: 5f57 fd3c 762a 353d 5e63 873d 7752 103d
00000360: fce5 7e3d ba9d 483c 0875 14bd ae7c b93d
00000370: 767b a2bd 5d40 67bc ed8d ea3d 41fd 833d
00000380: 8709 d9ba 1253 a738 a1b4 c13d 2319 c23c
00000390: 5e42 47bd c6f1 32bd 005b 45bc a856 fdbc
000003a0: 1fa2 923d 6d75 a73d d420 b1bd 331a fabd
000003b0: 69f2 3c3e d7a7 77bc 4fa1 bcbd 7ade 7dbc
000003c0: 3869 5cbd 9641 30bd 038d 7c3d 1f0f 9cbd
000003d0: 58a9 65be c950 46be 85ae 93be 8d01 86be
000003e0: 0dbd 0abe 4043 13be 8346 3dbe 686e 8fbd
000003f0: ae86 ac3d 7a31 233e f9dc 2b3e f79e 063e

conv2.bias f4 [64]
-0.031541962 -0.06381985 -0.0127951605 0.021624252 0.05013352 -0.046843648 0.051094227 -0.025320485
-0.009910541 -0.06700002 0.047316708 0.025362192 -0.062236737 -0.076383434 0.07428608 -0.036509175
0.0746264 -0.04211555 -0.069838665 -0.011945404 -0.0074099097 -0.008679834 0.009691266 -0.10383271
-0.047807056 -0.03421399 0.026395015 -0.014210841 -0.008003785 -0.009264858 -0.045222398 -0.00848381
-0.008696737 0.034389846 -0.007314671 -0.014028899 -0.05382813 0.05767328 0.022358887 0.051688973
-0.023282694 -0.009217565 -0.047952775 -0.027222537 -0.0070137475 -0.0017923217 0.03197925 -0.020913698
0.027576383 -0.0017713875 -0.027316045 -0.05471579 -0.003203018 -0.054594234 0.032697633 0.066509955
0.022454588 -0.09144898 -0.045524772 0.0142761115 0.0029249142 0.059857767 -0.023085529 -0.0032424848
00000000: 2532 01bd fbb3 82bd cba2 51bc 5825 b13c
00000010: ce58 4d3d 20df 3fbd 2e48 513d e86c cfbc
00000020: d25f 22bc 4e37 89bd 2acf 413d 5fc4 cf3c
00000030: f3eb 7ebd eb6e 9cbd 4d23 983d a58a 15bd
00000040: bad5 983d 5b81 2cbd 9307 8fbd a8b6 43bc
00000050: d4ce f2bb dd35 0ebc 1ec8 1e3c 3ea6 d4bd
00000060: 55d1 43bd f823 0cbd 5c3a d83c 96d4 68bc
00000070: 4f22 03bc a2cb 17bc 1f3b 39bd aeff 0abc
00000080: c27c 0ebc 5edc 0c3d e8af efbb 78d9 65bc
00000090: e37a 5cbd d13a 6c3d fc29 b73c d1b7 533d
000000a0: 59bb bebc 4505 17bc 216a 44bd cc01 dfbc
000000b0: 94d3 e5bb 56ec eaba adfc 023d 3453 abbc
000000c0: dee7 e13c e72d e8ba e6c5 dfbc aa1d 60bd
000000d0: bae9 51bb 349e 5fbd f4ed 053d 5f36 883d
000000e0: aff2 b73c 9a49 bbbd 2f78 3abd 5ae6 693c
000000f0: ebaf 3f3b 6b2d 753d dd1d bdbc de7f 54bb

conv3.weight f4 [128, 64, 3, 3]
0.045093346 0.12621525 0.12158049 0.00029753763 -0.010437159 -0.12332299 -0.05862857 -0.026063027
0.013971336 0.056384828 -0.0798022 0.043504994 -0.017450022 -0.05783758 -0.03320433 -0.071916595
-0.08948713 -0.23441884 0.0053012175 0.010115611 0.14154825 -0.02634618 -0.09207891 0.04449912
-0.16960485 -0.023543889 0.03694428 -0.17795502 -0.18370411 -0.09520982 -0.09080539 0.058611438
-0.02754859 0.13180347 0.09491183 0.017523507 0.1257763 0.10406535 0.006319406 0.034092076
-0.059312265 0.03547563 -0.12204594 -0.16178972 -0.14963318 0.0023305656 0.061090723 0.14991632
-0.07683145 -0.090618014 0.023320079 -0.15020385 -0.042817988 0.058337223 -0.052879572 0.020064939
-0.009400304 -0.01794994 -0.005125353 0.1565576 -0.102690876 -0.17688379 -0.08188815 0.07068565
0.042926554 -0.12928689 -0.023187207 -0.0420912 -0.15847716 0.08454038 0.023834776 0.06483631
-0.017640105 -0.020072311 0.16208693 -0.059385248 0.0941957 0.14550452 -0.19237661 -0.21791688
0.049923643 0.024305182 0.0013121986 0.06281205 -0.060112216 -0.19196136 0.07520274 -0.07354044
-0.0048199724 0.0027428009 -0.020120598 0.034734324 -0.06424739 0.08837104 -0.09824863 0.120196275
0.006677947 -0.01918368 0.013103091 -0.14416908 0.029793005 0.113933966 -0.012708238 0.06322663
0.04508209 -0.13881972 -0.2285881 -0.09786106 0.083311826 0.1706852 0.03577959 -0.04780316
-0.067475885 -0.062809296 0.07396579 -0.028360805 0.041766945 0.020461703 0.017152248 0.097661495
-0.033471324 -0.15094694 -0.03337093 -0.19306707 -0.15641207 0.039485298 -0.023199467 -0.08416677
-0.008947625 -0.036273886 -0.05176073 -0.08575465 0.11362281 0.037018973 0.06225406 -0.0017898594
0.07706286 -0.04604678 -0.0790389 -0.16748153 0.19287461 0.04113622 0.017438542 -0.03232239
-0.0704762 0.0078046075 0.024684552 -0.077032134 -0.048655707 -0.15546326 0.030860115 0.062021602
0.028664434 -0.0010591199 -0.060009625 -0.02233945 -0.023167884 -0.10642866 -0.18202583 0.08811917
0.06550243 0.0043490934 0.022183811 -0.0132 -0.07002501 0.017020348 -0.12243705 -0.16640154
0.06241406 0.045795694 0.022046573 -0.028739115 0.087222144 0.17341177 -0.03574005 -0.0124206375
-0.06524809 -0.06291791 -0.07711136 -0.12341322 -0.2515005 -0.1833891 -0.0733895 -0.037200358
0.13176408 0.10328225 0.06494387 0.012869418 -0.103204526 -0.11569136 0.02060884 0.014092547
-0.06023775 -0.02501385 0.035960093 -0.012816326 0.035867423 0.0423928 -0.035235777 0.05756257
0.056241523 -0.15347445 -0.12431055 0.06577099 -0.001529979 0.06586649 0.045917626 -0.10533261
-0.11770215 -0.08359193 -0.05678867 -0.10814971 0.020288447 0.029684015 0.06493342 0.06425594
-0.14775588 -0.02266698 0.082134895 0.0124657145 -0.023960419 -0.007602411 -0.032615174 -0.07177662
0.029051773 0.010587363 0.006233421 0.12095939 -0.111940466 -0.063343205 -0.089704394 0.024307745
0.06737279 -0.015704572 -0.053330228 0.03969444 0.14694902 -0.091072194 -0.08348581 0.006429473
-0.19706063 -0.12948565 -0.034653824 0.100018114 0.11026955 -0.015944647 -0.107380144 -0.19309364
-0.10459212 0.10448184 0.009120954 0.08518763 0.018804386 0.07762968 0.08729367 -0.10115107
00000000: cdb3 383d 923e 013e 31ff f83d d3fe 9b39
00000010: 9e00 2bbc c490 fcbd 8324 70bd 2182 d5bc
00000020: 08e8 643c c7f3 663d 566f a3bd 4b32 323d
00000030: 59f3 8ebc 19e7 6cbd 4301 08bd 0249 93bd
00000040: 0745 b7bd 7e0b 70be d6b5 ad3b f3bb 253c
00000050: 06f2 103e f2d3 d7bc de93 bcbd b644 363d
00000060: e5ac 2dbe 1ddf c0bc e352 173d d739 36be
00000070: ee1c 3cbe 5efd c2bd 2df8 b9bd 8c12 703d
00000080: 95ad e1bc 7df7 063e 2261 c23d 758d 8f3c
00000090: 81cb 003e 3720 d53d 0513 cf3b 22a4 0b3d
000000a0: 6bf1 72bd e54e 113d 39f3 f9bd 34ac 25be
000000b0: 7139 19be 67bc 183b 443a 7a3d aa83 193e
000000c0: cf59 9dbd f095 b9bd c009 bf3c 0acf 19be
000000d0: ea61 2fbd 03f3 6e3d 4098 58bd 3a5f a43c
000000e0: bc03 1abc c10b 93bc 94f2 a7bb a350 203e
000000f0: 984f d2bd 0621 35be f9b4 a7bd a3c3 903d
00000100: c1d3 2f3d c863 04be 19f3 bdbc d267 2cbd
00000110: d647 22be 8223 ad3d 2641 c33c e6c8 843d
00000120: fb81 90bc b06e a4bc 1efa 253e f23d 73bd
00000130: ade9 c03d 23ff 143e 60fe 44be 9a25 5fbe
00000140: bc7c 4c3d a91b c73c 14fe ab3a 9ba3 803d
00000150: 3a38 76bd 8591 44be e503 9a3d 5f9c 96bd
00000160: dcf0 9dbb 90c0 333b f4d3 a4bc 9445 0e3d
00000170: 2394 83bd e0fb b43d 9436 c9bd 7729 f63d
00000180: aed2 da3b 1827 9dbc 59ae 563c 0fa1 13be
00000190: 7610 f43c 3656 e93d 3736 50bc f77c 813d
000001a0: ffa7 383d c226 0ebe 0013 6abe 616b c8bd
000001b0: 649f aa3d 1ac8 2e3e 9f8d 123d 3fcd 43bd
000001c0: cc30 8abd 29a2 80bd 607b 973d eb54 e8bc
000001d0: d113 2b3d 4d9f a73c df82 8c3c c002 c83d
000001e0: 3a19 09bd d691 1abe f5af 08bd 60b3 45be
000001f0: 7c2a 20be 56bb 213d cf0c bebc a15f acbd
00000200: 0f99 12bc ed93 14bd 0f03 54bd 22a0 afbd
00000210: 13b3 e83d 35a1 173d 1dfe 7e3d b799 eaba
00000220: 22d3 9d3d 8c9b 3cbd 26df a1bd 4780 2bbe
00000230: ec80 453e 747e 283d 46db 8e3c 7b64 04bd
00000240: d355 90bd cbbd ff3b 4237 ca3c 06c3 9dbd
00000250: 354b 47bd c331 1fbe 5ace fc3c 5d0a 7e3d
00000260: add1 ea3c 2bd2 8aba a7cc 75bd 3901 b7bc
00000270: 93ca bdbc 45f7 d9bd fb64 3abe d377 b43d
00000280: 2326 863d d782 8e3b d3ba b53c d044 58bc
00000290: 4669 8fbd 426e 8b3c 47c0 fabd 2a65 2abe
000002a0: e3a5 7f3d 4494 3b3d 049b b43c 4b6e ebbc
000002b0: 86a1 b23d db92 313e 2964 12bd ee7f 4bbc
000002c0: caa0 85bd 1bdb 80bd 90ec 9dbd 12c0 fcbd
000002d0: acc4 80be 5aca 3bbe 3c4d 96bd 675f 18bd
000002e0: 2aed 063e a585 d33d 4b01 853d 40da 523c
000002f0: e55c d3bd 97ef ecbd dfd3 a83c 6de4 663c
00000300: dcbb 76bd d8e9 ccbc e44a 133d 91fb 51bc
00000310: b8e9 123d 13a4 2d3d 6453 10bd bbc6 6b3d
00000320: 835d 663d 6828 1dbe 8896 febd f1b2 863d
00000330: 9489 c8ba 03e5 863d 1f14 3c3d a0b8 d7bd
00000340: d30d f1bd 3f32 abbd 3d9b 68bd 987d ddbd
00000350: f533 a63c e42b f33c d0fb 843d 9e98 833d
00000360: 514d 17be 1ab0 b9bc 5736 a83d ff3c 4c3c
00000370: a448 c4bc a51d f9bb 7d97 05bd 9fff 92bd
00000380: fcfd ed3c 9e76 2d3c ba41 cc3b 8fb9 f73d
00000390: 0b41 e5bd 15ba 81bd f0b6 b7bd 0921 c73c
000003a0: bffa 893d e0a6 80bc cc70 5abd a396 223d
000003b0: ce79 163e 0f84 babd 9cfa aabd 54ae d23b
000003c0: 43ca 49be e397 04be 2bf1 0dbd 4cd6 cc3d
000003d0: 00d5 e13d 599e 82bc 1fea dbbd 57ba 45be
000003e0: 6534 d6bd 93fa d53d 0e70 153c da76 ae3d
000003f0: a80b 9a3c 4ffc 9e3d 06c7 b23d 4b28 cfbd

conv3.bias f4 [128]
-0.07917628 0.0462196 -0.06589782 -0.09573271 -0.031233655 0.012393762 -0.017258093 -0.050961673
-0.009275851 -0.011720818 -0.052359387 -0.04273273 -0.0709516 -0.024534106 -0.051919114 -0.03623247
-0.03907611 -0.06714431 -0.028882552 -0.03653941 -0.09006022 -0.0942652 -0.048204772 -0.04799415
-0.07450827 -0.05830687 -0.042949393 -0.05751577 -0.030241348 -0.029004216 -0.07425466 -0.06599417
0.008207791 -0.10694729 -0.040059462 -0.090486795 0.05791994 -0.04460981 -0.04695655 -0.03294175
-0.016144477 -0.04966171 0.0019725312 -0.026407652 0.008328209 -0.087776855 -0.009478852 -0.05841683
0.07256198 0.011608017 -0.03902333 -0.024124475 -0.021178005 -0.047103863 -0.08492395 -0.014384049
-0.16404556 -0.04007059 -0.025501214 -0.0144787505 -0.065952994 -0.07017415 -0.09587992 -0.015716868
0.025570583 -0.035000514 -0.06537447 -0.0131405825 -0.053159203 -0.051035218 -0.07192684 -0.064576365
-0.09068104 -0.02569708 -0.07351318 -0.084605604 -0.00302555 -0.06679265 -0.07714927 -0.0840856
0.020388324 -0.011900746 -0.009618937 -0.056160677 -0.104491636 -0.028370097 -0.079945594 -0.032454588
-0.070331 -0.10301785 -0.04520754 -0.039261363 -0.031642687 -0.02542116 -0.059694514 -0.10253705
-0.059392784 -0.024929596 -0.07803274 -0.040285937 -0.025394395 -0.03667243 -0.005989796 -0.068701506
-0.06019007 0.017138157 -0.07044187 -0.03363269 -0.016604437 -0.028526274 -0.09479523 -0.04745473
-0.030128855 -0.030136384 0.015110608 0.069552526 -0.041220125 -0.0075397766 0.021002598 -0.040455844
-0.05849574 -0.015804771 0.0043660924 -0.007597578 0.0020449655 -0.012672367 -0.017105108 0.015665932
00000000: 2c27 a2bd c350 3d3d 70f5 86bd 830f c4bd
00000010: b9dd ffbc 350f 4b3c d860 8dbc 30bd 50bd
00000020: bdf9 17bc ac08 40bc cc76 56bd 8408 2fbd
00000030: 134f 91bd c0fb c8bc 23a9 54bd 8068 14bd
00000040: 450e 20bd f582 89bd 1a9b ecbc 59aa 15bd
00000050: 7e71 b8bd 1d0e c1bd 5e72 45bd 8495 44bd
00000060: cb97 98bd 2fd3 6ebd b4eb 2fbd a895 6bbd
00000070: b4bc f7bc 409a edbc d412 98bd f427 87bd
00000080: f879 063c 2e07 dbbd 6415 24bd 2451 b9bd
00000090: 763d 6d3d c7b8 36bd 8355 40bd eeed 06bd
000000a0: 6c41 84bc 146a 4bbd 9545 013b dc54 d8bc
000000b0: 0a73 083c 5ac4 b3bd 304d 1bbc 7c46 6fbd
000000c0: 609b 943d 8d2f 3e3c edd6 1fbd b1a0 c5bc
000000d0: 7f7d adbc fbef 40bd 9cec adbd 13ab 6bbc
000000e0: 8ffb 27be 0f21 24bd ece7 d0bc 4838 6dbc
000000f0: 5d12 87bd 77b7 8fbd b15c c4bd a9c0 80bc
00000100: 6679 d13c b35c 0fbd 0de3 85bd 994b 57bc
00000110: 77bd 59bd 4e0a 51bd 614e 93bd 9d40 84bd
00000120: fbb6 b9bd af82 d2bc 148e 96bd b445 adbd
00000130: 4e48 46bb 96ca 88bd 7000 9ebd 1235 acbd
00000140: 6a05 a73c 59fb 42bc bf98 1dbc bd08 66bd
00000150: b6ff d5bd 6868 e8bc 84ba a3bd 1aef 04bd
00000160: b309 90bd 06fb d2bd 8b2b 39bd 86d0 20bd
00000170: c39b 01bd 0940 d0bc 3c82 74bd f2fe d1bd
00000180: d945 73bd 2739 ccbc a1cf 9fbd de02 25bd
00000190: e807 d0bc d435 16bd 0d46 c4bb 60b3 8cbd
000001a0: dd89 76bd 5265 8c3c d443 90bd 6ec2 09bd
000001b0: 0706 88bc efaf e9bc 0024 c2bd e45f 42bd
000001c0: cad0 f6bc 94e0 f6bc 7c92 773c 8e71 8e3d
000001d0: 6fd6 28bd 3b10 f7bb a40d ac3c 07b5 25bd
000001e0: 3b99 6fbd 0279 81bc 7011 8f3b 1bf5 f8bb
000001f0: d404 063b c29f 4fbc 0320 8cbc d755 803c

fc1.weight f4 [128, 1152]
-0.006710688 0.029898163 0.032184854 0.08211196 -0.043709114 -0.08285204 -0.10080472 0.07808463
0.049489666 0.04907243 0.1348025 0.030255234 0.036114134 0.04639249 0.056400426 0.016313938
0.039162297 -0.012194683 -0.045855783 -0.02080107 0.052842442 0.013413102 -0.00052501133 -0.051170554
0.005072744 0.051618654 0.07873368 -0.011072401 -0.0038806018 -0.061733857 -0.018267607 -0.026179263
0.08298427 0.03499962 0.026814653 0.021201016 0.007254575 -0.025474045 0.028661568 -0.054865066
-0.09831868 0.0381856 -0.106604084 0.08001256 0.0019951756 -0.020300765 -0.07628687 0.12569408
0.020050269 -0.008804735 0.01882059 0.014208749 0.13165578 -0.019127639 0.033757456 0.0780183
-0.0808061 0.13221739 -0.065097556 -0.13297167 0.017172977 -0.01568852 0.0039944747 0.002536087
-0.03448263 0.024767183 0.0028652104 -0.010671981 0.018848034 0.033428848 0.08293169 -0.08106014
0.045066636 -0.006574922 0.006731308 -0.04629515 -0.023387762 -0.0124250455 0.010612291 -0.05834323
0.019007662 -0.054725386 0.008273768 -0.077776104 0.007098935 0.027828159 0.019441577 0.02564811
-0.023873886 -0.034406837 -0.022499386 -0.084393285 0.08212446 0.024515398 0.079574265 -0.03840055
-0.007897683 0.044743553 0.007980774 0.09404514 0.21117255 -0.008234355 -0.088081375 -0.10456135
0.07847192 0.028179694 0.06520327 0.031508658 -0.050873414 -0.092000805 -0.0075942613 0.015076825
0.015869852 -0.033393804 0.051541187 -0.0130650895 0.0022027988 0.056771886 -0.008342368 -0.013309646
0.09131007 0.012671143 -0.01688706 0.0891052 -0.029479371 0.05227578 0.037509963 -0.015166842
-0.07582655 -0.032442 0.029813586 0.16670562 0.04357084 0.030322574 0.011070453 -0.008142557
-0.06676296 -0.011933064 0.054324195 -0.0049085175 0.01579566 0.033478573 -0.008002261 -0.0506304
0.10291782 0.02210325 -0.095726795 -0.042540837 -0.0035669187 0.041995153 0.0138321705 0.030089395
0.014239927 -0.027966889 -0.035249773 0.009566102 -0.053430017 -0.00023351786 0.028217077 0.0022668215
-0.043139853 -0.036749624 0.033841163 -0.066234566 0.038992174 -0.008860099 -0.021348156 -0.04345592
0.021679759 -0.06093791 0.060773905 -0.018064562 0.021000376 0.092458405 0.023343997 0.002839179
0.038419586 -0.030439965 0.002088076 -0.055593416 0.06933113 0.019445576 -0.052461974 0.037507948
0.041576363 0.22565906 -0.11604833 0.047838468 -0.03160733 -0.09820747 0.017150482 -0.000840142
0.017704012 0.05340872 -0.0049172523 0.021502769 -0.10488701 -0.087755665 -0.010312954 -0.09221541
0.031042907 0.046489105 -0.010774705 -0.03528731 -0.0050369403 -0.02873873 0.031795915 -5.3853943e-05
-0.012974174 -0.03363552 0.009531052 -0.046638437 -0.05508652 0.06899339 0.024754444 0.021637237
0.11656062 0.017519962 -0.09483167 0.043792114 0.013862286 0.04893499 -0.055723265 -0.012787846
0.08607816 -0.0065872916 0.12856264 -0.052439906 0.061474964 0.05602817 0.09628318 0.032338157
0.0056139827 0.014824156 0.060846142 0.016706385 0.005320899 0.039014783 0.027809668 -0.034632944
0.012535221 -0.02104373 -2.1317002e-05 0.0026188674 -0.035859887 -0.027659422 -0.055281874 0.028579231
0.03925693 0.026233017 -0.01692589 0.022395665 0.01734342 0.021612596 -0.028420458 0.021270098
00000000: 55e5 dbbb feec f43c 44d4 033d 512a a83d
00000010: 5408 33bd 55ae a9bd b472 cebd d6ea 9f3d
00000020: adb5 4a3d 2c00 493d ab09 0a3e d3d9 f73c
00000030: 6aec 133d 0d06 3e3d 2204 673d cfa4 853c
00000040: a568 203d 35cc 47bc 46d3 3bbd 0167 aabc
00000050: 5171 583d a1c2 5b3c eaa0 09ba 3798 51bd
00000060: 4339 a63b 156e 533d 203f a13d 0469 35bc
00000070: b251 7ebb a4dc 7cbd f3a5 95bc e575 d6bc
00000080: a8f3 a93d c35b 0f3d 67aa db3c c1ad ad3c
00000090: c9b7 ed3b f2ae d0bc aacb ea3c 31ba 60bd
000000a0: 4e5b c9bd 8168 1c3d 3e53 dabd a0dd a33d
000000b0: 7ec1 023b ca4d a6bc 4a3c 9cbd f3b5 003e
000000c0: 7640 a43c bc41 10bc a32d 9a3c d0cb 683c
000000d0: c6d0 063e 91b1 9cbc 4245 0a3d 0fc8 9f3d
000000e0: ab7d a5bd ff63 073e de51 85bd ba29 08be
000000f0: 58ae 8c3c 3685 80bc 15e4 823b 7b34 263b
00000100: a93d 0dbd 8ce4 ca3c 41c6 3b3b 88d9 2ebc
00000110: 3167 9a3c b0ec 083d 17d8 a93d dc02 a6bd
00000120: cb97 383d 7172 d7bb 4e92 dc3b fc9f 3dbd
00000130: b197 bfbc 6b92 4bbc 2ddf 2d3c 50f9 6ebd
00000140: f5b5 9b3c ba27 60bd b38e 073c 1449 9fbd
00000150: 2f9e e83b e1f7 e33c f143 9f3c fc1b d23c
00000160: 2b93 c3bc 2fee 0cbd a250 b8bc 63d6 acbd
00000170: de30 a83d 84d4 c83c d5f7 a23d e549 1dbd
00000180: 4965 01bc 0445 373d cbc1 023c bd9a c03d
00000190: 9e3d 583e 63e9 06bc 0264 b4bd 4324 d6bd
000001a0: e3b5 a03d 1ad9 e63c 4b89 853d 390f 013d
000001b0: a460 50bd eb6a bcbd 48d9 f8bb ca04 773c
000001c0: 7e01 823c f1c7 08bd da1c 533d f50e 56bc
000001d0: d55c 103b a389 683d 6dae 08bc b410 5abc
000001e0: c600 bb3d a09a 4f3c bb56 8abc c97c b63d
000001f0: b97e f1bc 211f 563d 0ca4 193d 597e 78bc
00000200: f34a 9bbd e7e1 04bd 9f3b f43c e1b4 2a3e
00000210: 5677 323d 0c67 f83c d860 353c 5c68 05bc
00000220: 05bb 88bd e682 43bc 0c83 5e3d a1d7 a0bb
00000230: e665 813c d420 093d ea1b 03bc d361 4fbd
00000240: 94c6 d23d e011 b53c 690c c4bd 4d3f 2ebd
00000250: f7c2 69bb 1c03 2c3d 54a0 623c 097e f63c
00000260: 954e 693c d11a e5bc 1162 10bd 24bb 1c3c
00000270: 6fd9 5abd 79dc 74b9 8027 e73c f48e 143b
00000280: 6ab3 30bd c686 16bd 089d 0a3d fda5 87bd
00000290: 42b6 1f3d f329 11bc 54e2 aebc d6fe 31bd
000002a0: c099 b13c 089a 79bd 0fee 783d 22fc 93bc
000002b0: fb08 ac3c d55a bd3d e93b bf3c 8511 3a3b
000002c0: db5d 1d3d 3c5d f9bc 1ad8 083b ecb5 63bd
000002d0: 7bfd 8d3d 544c 9f3c 5ee2 56bd efa1 193d
000002e0: fa4b 2a3d 2b13 673e bfaa edbd 45f2 433d
000002f0: b076 01bd ff20 c9bd 2b7f 8c3c fa3c 5cba
00000300: 0108 913c 1ac3 5a3d e720 a1bb 9326 b03c
00000310: 00cf d6bd 3eb9 b3bd aaf7 28bc 6fdb bcbd
00000320: b24d fe3c 5c6b 3e3d 6388 30bc 6d89 10bd
00000330: eb0c a5bb 7c6d ebbc 6f3c 023d 3be1 61b8
00000340: a191 54bc 66c5 09bd 2128 1c3c f207 3fbd
00000350: 67a2 61bd 684c 8d3d d5c9 ca3c 9340 b13c
00000360: 56b7 ee3d 0686 8f3c 1b37 c2bd 5c5f 333d
00000370: a41e 633c 0e70 483d 143e 64bd 1d84 51bc
00000380: bf49 b03d 35da d7bb eda5 033e 3acb 56bd
00000390: 2ccd 7b3d cb7d 653d 1e30 c53d 0475 043d
000003a0: 80f5 b73b 04e1 723c ce39 793d d4db 883c
000003b0: f05a ae3b f7cd 1f3d 1ad1 e33c 46db 0dbd
000003c0: 8760 4d3c e763 acbc ead1 b2b7 4ea1 2b3b
000003d0: d1e1 12bd 0396 e2bc 3f6f 62bd fe1e ea3c
000003e0: e0cb 203d a0e6 d63c 2aa8 8abc 1d77 b73c
000003f0: ca13 8e3c e60c b13c 05d2 e8bc a13e ae3c

fc1.bias f4 [128]
0.04593803 -0.01273504 -0.0059969192 0.01498803 -0.020235434 0.0022924787 0.03129352 -0.014573635
-0.025209954 -0.005145403 -0.054797158 -0.011689548 -0.06208949 -0.0051975637 0.0112743005 -0.00845052
-0.047009695 -0.010028122 -0.0026681202 -0.07792022 -0.0014423555 -0.06882486 0.01427317 -0.008308952
-0.011942499 -0.02599532 0.009402848 0.002297373 -0.009823189 0.017439254 0.009935288 0.013856611
-0.034703165 -0.015242559 0.018315664 -0.04328789 -0.082796685 -0.019803833 0.024989042 0.015688827
-0.025121994 -0.02716069 -0.06681673 0.04030524 0.005139377 -0.013179611 -0.020303193 -0.030500108
-0.0392217 -0.008988579 -0.040953346 0.011838992 -0.021493075 -0.019028101 -0.0128206005 0.0033313213
-0.026466731 0.009665065 -0.00034180467 0.00024595935 -0.011821034 -0.008627845 0.0016963691 -0.036962636
0.01840792 0.00763673 -0.019277498 -0.01678948 -0.00014970049 0.0127185155 0.015586073 -0.059560552
0.022912532 -0.0817507 -0.01840178 -0.015213827 -0.06938055 0.011959581 -0.0022985062 0.031647597
-0.0060607977 -0.0017135725 -0.011325649 0.033723004 0.0014101488 -0.0415368 -0.0048647798 -0.043631993
0.022155656 0.015305868 -0.024853295 0.0011012568 0.032804526 -0.024898617 -0.012628054 -0.052126527
-0.04257451 0.022524653 0.0017700079 0.00022484601 -0.025145987 -0.014978228 0.028851097 -0.001123046
0.011661356 0.0039059774 -0.024138374 -0.0040467293 0.016143335 0.008258777 0.018385516 0.03644073
-0.015926585 -0.03399942 -0.006277629 -0.016590675 -0.020027695 0.017697565 -0.055600166 -0.015662095
-0.025911057 -0.013147998 0.051122595 -0.028728243 0.0059177196 -0.009789785 0.038825843 0.062745385
00000000: 8429 3c3d a1a6 50bc ce81 c4bb 5b90 753c
00000010: c8c4 a5bc 693d 163b a22d 003d 41c6 6ebc
00000020: 1b85 cebc c59a a8bb fc72 60bd 8585 3fbc
00000030: 8d51 7ebd 5350 aabb d8b7 383c 0d74 0abc
00000040: 3d8d 40bd fe4c 24bc a1db 2ebb a394 9fbd
00000050: 6b0d bdba 0cf4 8cbd 04da 693c 4522 08bc
00000060: 79aa 43bc 23f4 d4bc 670e 1a3c 868f 163b
00000070: 71f1 20bc c4dc 8e3c 9ec7 223c d706 633c
00000080: e824 0ebd edbb 79bc bb0a 963c a44e 31bd
00000090: 4f91 a9bd a63b a2bc d2b5 cc3c db85 803c
000000a0: a4cc cdbc 1880 debc 36d7 88bd 1b17 253d
000000b0: 3868 a83b 4cef 57bc e252 a6bc 5ddb f9bc
000000c0: efa6 20bd d544 13bc b2be 27bd 55f8 413c
000000d0: 3f12 b0bc d2e0 9bbc 7f0d 52bc 4c52 5a3b
000000e0: c2d0 d8bc 395a 1e3c 3f34 b3b9 1bf4 8039
000000f0: 03ad 41bc ce5b 0dbc b458 de3a 2266 17bd
00000100: 35cc 963c 893d fa3b d8eb 9dbc 178a 89bc
00000110: ebf8 1cb9 5261 503c ba5c 7f3c c4f5 73bd
00000120: 10b3 bb3c e96c a7bd 54bf 96bc 6a43 79bc
00000130: 6417 8ebd 1ef2 433c 89a2 16bb e9a0 013d
00000140: a899 c6bb f499 e0ba 378f 39bc 2221 0a3d
00000150: bed4 b83a 7e22 2abd bb68 9fbb 76b7 32bd
00000160: c77f b53c 77c5 7a3c 2399 cbbc 0c58 903a
00000170: 0a5e 063d 2ff8 cbbc e6e5 4ebc a082 55bd
00000180: 9c62 2ebd 9f85 b83c 9cff e73a a4c4 6b39
00000190: f5fe cdbc 3e67 75bc 2359 ec3c 2c33 93ba
000001a0: 460f 3f3c 6dfb 7f3b d7bd c5bc 6d9a 84bb
000001b0: 073f 843c d24f 073c 399d 963c e042 153d
000001c0: 7878 82bc fa42 0bbd 92b4 cdbb 2be9 87bc
000001d0: 1f11 a4bc 7cfa 903c 00bd 63bd cb4d 80bc
000001e0: 6d43 d4bc b36a 57bc ed65 513d 7e57 ebbc
000001f0: 6ee9 c13b 5665 20bc d907 1f3d a780 803d

fc2.weight f4 [10, 128]
0.0453937 -0.059256364 0.025431478 -0.031265408 0.07881405 -0.16422312 -0.09711471 0.065111145
-0.05443528 0.061222658 -0.08075703 -0.077110514 -0.026025236 0.08101013 0.00995518 0.009892996
0.08051764 0.10020568 0.14134374 -0.044528544 0.034944415 -0.0925742 -0.07222438 0.0024703422
-0.077931546 0.04794191 -0.0760746 0.083843134 -0.10752146 -0.09758258 -0.0808552 -0.054937772
-0.043072607 -0.0796354 -0.17199388 0.07052746 -0.08553426 0.10316091 -0.13556664 -0.047670554
-0.04772338 0.00082825084 0.06632411 0.09141527 -0.10468702 -0.0682122 -0.15177368 -0.13914867
-0.08265198 -0.104786545 -0.07178323 -0.20058097 -0.16969734 0.058272827 0.043731973 0.052460104
0.056720283 0.07256261 0.036498126 0.016500652 -0.027480505 0.07929612 -0.06482774 0.042105664
-0.19749087 0.07876904 -0.075116776 -0.077728294 -0.16948363 0.12777519 -0.22609957 0.08157754
-0.06593194 -0.18832405 0.094053425 -0.034049507 0.03422438 -0.1124162 0.048766088 -0.18153311
0.01935219 0.050972153 -0.043280087 -0.09239441 -0.13838217 0.08237704 0.08095532 0.113760956
-0.05600132 0.048182465 0.08923327 0.08819457 -0.135728 0.00900769 0.05761002 0.10385326
0.093655564 0.06364365 0.061319325 -0.16246141 0.034670725 0.008815418 -0.16926017 -0.06661152
-0.14078401 -0.016985722 0.060207415 0.080463216 -0.14996204 -0.09417579 -0.08083818 -0.17332102
0.04085227 -0.08604741 -0.074295335 0.044198625 0.057273794 -0.015017704 0.02677028 -0.13616249
-0.035798058 0.027038362 -0.07951788 0.055910043 -0.16014035 0.06542276 -0.17001309 -0.18761614
0.026333334 0.041244656 -0.066205114 -0.006736819 0.076477155 -0.1570589 0.03414265 0.065097824
-0.012766342 -0.04152612 -0.17441946 0.07387372 0.16151814 -0.07052698 -0.02785012 0.012637149
0.0795717 0.09298283 0.12529168 -0.1696438 -0.038369488 -0.08039362 0.107241526 -0.005498212
-0.13877818 -0.064930946 0.059769686 -0.095873356 -0.00049580896 -0.07061012 -0.029143237 0.14550439
0.10766417 -0.013199927 -0.015295828 -0.116333425 0.0012054325 -0.14119574 -0.1514145 -0.11188727
0.051541388 -0.0060752076 0.0394033 0.074183874 -0.033681568 -4.1078318e-05 0.088653676 -0.076599866
-0.19044803 -0.05578286 -0.0049505234 0.052862972 -0.14703356 0.0823802 -0.008705172 0.024476614
0.06376566 -0.18388039 -0.032003872 0.06601457 0.07320181 -0.13679585 0.11617673 -0.0112015875
-0.023086749 0.028139608 0.13105439 -0.06210395 -0.03295504 0.07459625 -0.06849385 0.043073732
-0.016588094 -0.005179365 -0.06886668 0.06695216 0.06449003 -0.13916633 -0.07869716 0.09184406
-0.09490629 -0.04468809 -0.045425728 0.054992817 0.11402793 -0.12474391 -0.14126779 -0.09882585
-0.036427498 -0.041230384 -0.052825645 0.111330085 0.08072896 0.024770109 -0.17233098 -0.15419471
-0.13046041 0.013560327 0.06800459 -0.09186036 -0.020395767 -0.0701289 0.038291886 -0.07818747
-0.11536839 0.06335962 -0.07942614 -0.13872088 0.08837944 -0.021288441 -0.09272428 0.09533079
0.09418744 0.007563549 0.024701856 -0.008335895 -0.07576161 -0.034339536 0.045846913 -0.13059448
-0.06796246 -0.07984101 0.073723815 -0.22345454 0.084975295 0.050246466 0.098754644 0.009306353
00000000: bfee 393d cdb6 72bd ad55 d03c 2810 00bd
00000010: 4369 a13d 1b2a 28be 14e4 c6bd fe58 853d
00000020: 87f7 5ebd 9cc4 7a3d f163 a5bd 1eec 9dbd
00000030: e032 d5bc a4e8 a53d 0d1b 233c 3c16 223c
00000040: 6fe6 a43d a338 cd3d 6abc 103e 9063 36bd
00000050: e021 0f3d 8b97 bdbd 60ea 93bd 77e5 213b
00000060: 939a 9fbd bc5e 443d 00cd 9bbd f3b5 ab3d
00000070: 3634 dcbd 60d9 c7bd 6997 a5bd 6e06 61bd
00000080: e76c 30bd e217 a3bd 2a1f 30be b370 903d
00000090: 962c afbd 0746 d33d fbd1 0abe 3342 43bd
000000a0: 9779 43bd f91e 593a efd4 873d ee37 bb3d
000000b0: 2666 d6bd d7b2 8bbd 8f6a 1bbe fd7c 0ebe
000000c0: 7145 a9bd 549a d6bd 1603 93bd 1965 4dbe
000000d0: 24c5 2dbe 7daf 6e3d 4c20 333d 68e0 563d
000000e0: 8753 683d b59b 943d 0f7f 153d 602c 873c
000000f0: cc1e e1bc 0166 a23d 68c4 84bd fd76 2c3d
00000100: 0c3b 4abe aa51 a13d d3d6 99bd 0330 9fbd
00000110: 1e8d 2dbe 80d7 023e a586 67be 2012 a73d
00000120: 5307 87bd 05d8 40be 159f c03d 7f77 0bbd
00000130: dd2e 0c3d 773a e6bd f3be 473d d1e3 39be
00000140: 7c88 9e3c 2dc8 503d 7646 31bd 4839 bdbd
00000150: 0eb4 0dbe 4bb5 a83d e7cb a53d 81fb e83d
00000160: a461 65bd fa5a 453d efbf b63d 5b9f b43d
00000170: 48fc 0abe fd94 133c 7cf8 6b3d 05b1 d43d
00000180: 7dce bf3d 9a57 823d f929 7b3d 495c 26be
00000190: e402 0e3d 8b6e 103c 8a52 2dbe 9f6b 88bd
000001a0: af29 10be a425 8bbc 0d9c 763d e6c9 a43d
000001b0: a68f 19be 3ddf c0bd 7d8e a5bd 117b 31be
000001c0: b654 273d a039 b0bd 2728 98bd 9e09 353d
000001d0: ed97 6a3d d10c 76bc 594d db3c 2e6e 0bbe
000001e0: fca0 12bd 8e7f dd3c 45da a2bd ee01 653d
000001f0: d5fb 23be 5efc 853d e917 2ebe 721e 40be
00000200: 01b9 d73c 28f0 283d 8c96 87bd 89c0 dcbb
00000210: 0ea0 9c3d 0cd4 20be 2ad9 0b3d 0252 853d
00000220: eb29 51bc 4b17 2abd 049b 32be 1b4b 973d
00000230: 0365 253e 7370 90bd ef25 e4bc 0b0c 4f3c
00000240: 7df6 a23d c86d be3d 764c 003e 1bb7 2dbe
00000250: 5329 1dbd 69a5 a4bd 72a1 db3d 582a b4bb
00000260: de1b 0ebe 84fa 84bd 0fd1 743d 4059 c4bd
00000270: 2df9 01ba 0a9c 90bd ccbd eebc 1aff 143e
00000280: 087f dc3d 8244 58bc 5a9b 7abc 3840 eebd
00000290: 9aff 9d3a 9e95 10be 670c 1bbe 2725 e5bd
000002a0: 101d 533d 8912 c7bb 5b65 213d b7ed 973d
000002b0: aff5 09bd 824b 2cb8 0f90 b53d 64e0 9cbd
000002c0: cf04 43be 917c 64bd 0038 a2bb d886 583d
000002d0: f78f 16be f3b6 a83d 23a0 0ebc 2e83 c83c
000002e0: 9297 823d 244b 3cbe 7e16 03bd a632 873d
000002f0: d5ea 953d 3614 0cbe 11ee ed3d dd86 37bc
00000300: 6c20 bdbc 0985 e63c 1f33 063e b660 7ebd
00000310: ddfb 06bd ebc5 983d 8146 8cbd 156e 303d
00000320: c1e3 87bc aab7 a9bb f909 8dbd 371e 893d
00000330: 5913 843d 9e81 0ebe fa2b a1bd bd18 bc3d
00000340: 3b5e c2bd dc0a 37bd 5410 3abd 2640 613d
00000350: 7a87 e93d bc79 ffbd 81a8 10be 3565 cabd
00000360: 0035 15bd 31e1 28bd b45f 58bd 0701 e43d
00000370: 3a55 a53d afea ca3c 8877 30be 38e5 1dbe
00000380: 6a97 05be 222c 5e3c fe45 8b3d 4921 bcbd
00000390: 0615 a7bc be9f 8fbd f4d7 1c3d c120 a0bd
000003a0: 4346 ecbd b0c2 813d 2caa a2bd d90c 0ebe
000003b0: 4800 b53d 1965 aebc 3ae6 bdbd ca3c c33d
000003c0: 58e5 c03d a6d7 f73b 8c5b ca3c 4793 08bc
000003d0: e728 9bbd 9da7 0cbd f9c9 3b3d 8fba 05be
000003e0: e72f 8bbd af83 a3bd 83fc 963d 44d1 64be
000003f0: 8707 ae3d 3dcf 4d3d e03f ca3d ac79 183c

fc2.bias f4 [10]
0.08824223 0.14429942 0.11094064 -0.02749551 -0.0968573 -0.018319935 -0.18443282 0.1268885
-0.04428252 -0.06545729
00000000: 58b8 b43d 3ac3 133e d934 e33d 443e e1bc
00000010: 1f5d c6bd b013 96bc f5db 3cbe 0fef 013e
00000020: 9661 35bd 790e 86bd
