mlp/mlp_best.pth (torch, 440277 bytes, 6 tensors)

fc1.weight f4 [128, 784]
0.02985736 0.009217102 -0.00055608485 0.02449264 0.042550456 0.048261005 0.029355701 -0.012677565
-0.013402364 0.01823369 0.03127161 0.001270926 0.035011772 0.009059886 0.041571185 -0.0036730808
0.044694785 0.04400291 0.0087537775 0.027400445 0.02290186 0.017564947 -0.011772961 0.0031839176
0.013945366 -0.0042587733 0.010569815 -0.015623433 0.040338356 0.04272254 0.028561618 0.04991616
-0.0047287336 0.027613604 0.016230242 0.00920604 0.025859768 0.008720658 0.010156106 0.028100437
0.015642328 0.030188521 -0.0076712254 0.027521968 -0.01376229 0.05180384 0.06046178 0.033622436
0.05050827 0.023530077 0.012383503 0.03661495 0.025710575 0.039161507 0.0067826416 0.052217502
0.037826885 -0.016145974 0.019798122 0.042119488 0.008608499 0.033396393 0.026561933 0.009068324
0.014357082 0.039067686 -0.0013635909 0.06755311 0.07110899 0.049598973 0.030449932 0.09406976
0.06785331 0.07816963 0.0503353 0.0647443 0.04120307 0.04871955 0.062537655 0.026381636
0.021231767 -0.018764395 0.04204836 0.0009359317 0.041025285 -0.008642281 0.01746101 0.043075684
0.054826234 0.055779886 0.0093089435 0.0567336 0.04237682 0.049529996 0.043094367 0.018817035
0.05567667 0.0836098 0.08256504 0.037026875 0.028266428 0.024250984 0.038319796 0.066385366
0.08580791 0.07998008 0.061870076 0.04634375 0.04537149 0.048341695 -0.008220979 0.008997839
-0.0033930652 -0.012919712 0.0073605194 0.026468731 0.017009925 0.012777376 0.036329288 0.006872025
0.038155098 0.014861028 0.056763064 -0.04373319 -0.00011903241 0.025840964 -0.011676832 -0.0518887
-0.12805906 -0.15915537 -0.108396724 -0.087931655 -0.011979408 0.028453138 0.109174 0.06498563
0.03463782 -0.00981432 0.022084428 0.05143103 0.022267926 -0.005237189 0.039420944 0.020783449
0.017876925 0.02133501 0.012312738 -0.023853865 0.0035539747 0.0062491135 0.0052742716 -0.07355257
-0.04843208 -0.041636825 -0.020512018 -0.059053008 -0.17909199 -0.22397307 -0.2042171 -0.16185607
-0.034669094 0.032818217 0.028382616 0.07813408 0.0558148 0.018198293 -0.0060451753 0.013584984
-0.011421398 -0.009015013 0.027050253 -0.018904405 0.005429862 0.0038186703 0.034932297 -0.020487834
-0.019565815 -0.07260626 -0.11855319 -0.11890174 -0.07918799 -0.08222498 -0.033165433 -0.14834964
-0.26606694 -0.35523397 -0.3220793 -0.14202236 -0.09939556 -0.04649731 0.037564177 0.03093481
0.103774935 0.029941527 -0.0011062508 0.009952614 -0.0021601878 0.004626879 -0.013236715 0.004605746
0.042011607 0.012428889 -0.0009966312 0.0020643459 -0.07022897 -0.06402547 -0.07768038 -0.099274166
-0.07744939 -0.088262 -0.05452921 -0.14755514 -0.32213873 -0.31157443 -0.27217302 -0.16459458
-0.08779068 -0.065742485 -0.026598971 0.008455307 0.1040504 0.05546316 0.010231822 0.016151547
0.052534033 0.045896176 0.035160515 -0.016385145 0.04264554 -0.01938877 -0.040724933 -0.032861184
-0.07263559 -0.13358441 -0.15261534 -0.101779826 -0.097030625 -0.11017491 -0.13309754 -0.2965816
-0.4871487 -0.31759802 -0.21124876 -0.10179695 0.050715856 -0.021067582 -0.067630485 -0.029318562
0.06825993 0.05165763 -0.008571263 0.048535712 -0.005747349 -0.0071279528 0.0501809 -0.011271447
00000000: 6c97 f43c 5403 173c 39c6 11ba caa4 c83c
00000010: 6349 2e3d 55ad 453d 5e7b f03c 90b5 4fbc
00000020: 9795 5bbc d25e 953c a916 003d 3395 a63a
00000030: 8168 0f3d eb6f 143c 8c46 2a3d 12b8 70bb
00000040: e111 373d 653c 343d 016c 0f3c e676 e03c
00000050: ae9c bb3c 5de4 8f3c 61e3 40bc 46a9 503b
00000060: 1b7b 643c 2e8d 8bbb 042d 2d3c 6df9 7fbc
00000070: d539 253d d5fd 2e3d 0efa e93c e374 4c3d
00000080: 7ef3 9abb ed35 e23c 49f5 843c eed4 163c
00000090: ddd7 d33c 17e1 0e3c cc65 263c e332 e63c
000000a0: 5724 803c eb4d f73c e75e fbbb c075 e13c
000000b0: 3a7b 61bc 4330 543d c5a6 773d aeb7 093d
000000c0: c2e1 4e3d 26c2 c03c 2de4 4a3c 8ff9 153d
000000d0: fc9e d23c d167 203d ec40 de3b 05e2 553d
000000e0: 5df0 1a3d 9044 84bc ac2f a23c 7c85 2c3d
000000f0: a90a 0d3c a8ca 083d 6998 d93c 4f93 143c
00000100: f739 6b3c 7005 203d 85ba b2ba 4959 8a3d
00000110: 97a1 913d 4b28 4b3d 2372 f93c a5a7 c03d
00000120: adf6 8a3d 6617 a03d 632c 4e3d a998 843d
00000130: 8dc4 283d 278e 473d be13 803d 4d1e d83c
00000140: 3eee ad3c cab7 99bc e73a 2c3d 5059 753a
00000150: 210a 283d 5b98 0dbc 640a 8f3c 2170 303d
00000160: 7991 603d 7379 643d 8a84 183c 7e61 683d
00000170: 5193 2d3d f7df 4a3d b883 303d 2f26 9a3c
00000180: 380d 643d 9d3b ab3d dc17 a93d 7ea9 173d
00000190: ff8e e73c 00aa c63c 38f5 1c3d 0df5 873d
000001a0: 0fbc af3d 99cc a33d 7a6b 7d3d f2d2 3d3d
000001b0: 75d7 393d f101 463d 49b1 06bc ac6b 133c
000001c0: 305e 5ebb 33ad 53bc 8330 f13b f4d4 d83c
000001d0: 6658 8b3c 3358 513c 05ce 143d b92e e13b
000001e0: 8548 1c3d ab7b 733c 6380 683d 9321 33bd
000001f0: 0aa1 f9b8 6eb0 d33c 2f50 3fbc 3f89 54bd
00000200: ea21 03be a0f9 22be 1aff ddbd 8315 b4bd
00000210: 4745 44bc 8e16 e93c 9e96 df3d 3017 853d
00000220: 63e0 0d3d 3ecc 20bc 67ea b43c 58a9 523d
00000230: 3a6b b63c ba9c abbb db77 213d 0d42 aa3c
00000240: a172 923c c2c6 ae3c 5ebb 493c 2e69 c3bc
00000250: cde9 683b 5dc5 cc3b ccd3 ac3b bba2 96bd
00000260: b760 46bd 608b 2abd d208 a8bc 91e1 71bd
00000270: e463 37be 3259 65be 4a1e 51be 99bd 25be
00000280: 2e01 0ebd 656c 063d a982 e83c c304 a03d
00000290: 0f9e 643d 9614 953c 9b16 c6bb 8d93 5e3c
000002a0: d120 3bbc b5b3 13bc 7e98 dd3c 69dd 9abc
000002b0: fcec b13b a842 7a3b 2b15 0f3d 1ad6 a7bc
000002c0: 7d48 a0bc 97b2 94bd 04cc f2bd c182 f3bd
000002d0: 502d a2bd 9265 a8bd 7ad8 07bd f8e8 17be
000002e0: ed39 88be 3ae1 b5be 94e7 a4be 4f6e 11be
000002f0: e68f cbbd f773 3ebd e5dc 193d 006b fd3c
00000300: f487 d43d ef47 f53c 9eff 90ba 4a10 233c
00000310: f091 0dbb 139d 973b cfde 58bc cceb 963b
00000320: 5d14 2c3d 8aa2 4b3c 65a1 82ba fa49 073b
00000330: 35d4 8fbd c91f 83bd e416 9fbd 4150 cbbd
00000340: c99d 9ebd b5c2 b4bd 055a 5fbd b218 17be
00000350: 5eef a4be af86 9fbe 435a 8bbe 7b8b 28be
00000360: 9acb b3bd ffa3 86bd 16e6 d9bc 2188 0a3c
00000370: 6018 d53d 572d 633d 5fa3 273c 4050 843c
00000380: ed2d 573d a1fd 3b3d 7904 103d 243a 86bc
00000390: 17ad 2e3d 33d5 9ebc 30cf 26bd 7399 06bd
000003a0: f8c1 94bd 5aca 08be 3247 1cbe f171 d0bd
000003b0: feb7 c6bd 62a3 e1bd b94a 08be 8bd9 97be
000003c0: 8e6b f9be 359c a2be 9851 58be eb7a d0bd
000003d0: 6ebb 4f3d ec95 acbc da81 8abd 7b2d f0bc
000003e0: ddcb 8b3d f396 533d 7c6e 0cbc 62cd 463d
000003f0: 4254 bcbb 9a91 e9bb 7d8a 4d3d e0ab 38bc

fc1.bias f4 [128]
-0.038043063 -0.0024267405 -0.025147902 0.0072988397 -0.0545891 -0.035990514 -0.014314653 -0.023126177
-0.054354314 -0.030957999 0.011028473 -0.043213665 -0.012775368 0.023753805 -0.015570134 -0.07213384
-0.045112085 -0.029057508 -0.03047302 0.027467081 0.02183508 -0.015394382 -0.022276709 0.010087693
-0.00014850148 0.0024075338 -0.014566207 -0.020400438 -0.0053994413 -0.02458915 -0.0027701112 0.0077758287
-0.02559334 0.033392057 0.0040134774 -0.018845635 -0.011885389 -0.051169127 0.0019603665 -0.014040406
-0.07015481 0.025559194 -0.086254165 -0.012698308 -0.04117486 0.011624656 -0.07139088 -0.0016295135
-0.0009863998 -0.028379643 0.0053832685 0.010272893 -0.034132946 0.0160463 -0.037320483 -0.0076839733
-0.019613693 -0.024016663 -0.06688755 -0.009376878 -0.0053697056 0.017043117 0.0075487983 0.0019393605
0.0059548886 0.00046162776 -0.023643116 0.01656872 -0.040491454 -0.06014209 -0.03570677 -0.00021999092
-0.027445892 0.00092320726 0.019578526 0.0016331616 -0.069010615 -0.037685424 0.00913949 -0.020846166
-0.06810193 -0.0081982585 -0.0073547917 0.016545726 -0.005057077 -0.034043845 -0.028988902 -0.048842307
0.002287951 -0.012282754 -0.050438307 0.0028595666 -0.031677153 0.019345611 0.00018404395 -0.016584318
-0.034551505 0.029554237 -0.015025723 -0.057189807 -0.000415405 -0.048138622 0.01465074 -0.017031543
-0.048989058 0.008216218 0.016016671 -0.033261694 -0.02649469 -0.069229804 0.013514111 -0.03278332
-0.01404894 -0.015236963 -0.08840261 -0.008103371 -0.048208177 -0.013282287 -0.025931349 0.021945098
-0.0077260816 -0.052338023 0.03508845 -0.03161137 0.009421066 -0.034050442 -0.014161426 -0.012165806
00000000: 0bd3 1bbd f309 1fbb f902 cebc 1b2b ef3b
00000010: d298 5fbd ca6a 13bd 0288 6abc 1c73 bdbc
00000020: a1a2 5ebd a19b fdbc c5b0 343c d000 31bd
00000030: c74f 51bc 5797 c23c e019 7fbc e8ba 93bd
00000040: 73c7 38bd 030a eebc 8ea2 f9bc a502 e13c
00000050: 7bdf b23c b838 7cbc a57d b6bc da46 253c
00000060: 10b7 1bb9 b7c7 1d3b 1aa7 6ebc d21e a7bc
00000070: cced b0bb 2f6f c9bc c18a 35bb 61cc fe3b
00000080: 20a9 d1bc 1cc6 083d 7d83 833b 2962 9abc
00000090: efba 42bc b896 51bd 7e79 003b bb09 66bc
000000a0: 53ad 8fbd 8461 d13c 06a6 b0bd 900c 50bc
000000b0: f8a6 28bd 5775 3e3c 6235 92bd 6695 d5ba
000000c0: 164a 81ba 6d7c e8bc 2166 b03b a34f 283c
000000d0: fdce 0bbd 8873 833c 5ddd 18bd d7c9 fbbb
000000e0: e5ac a0bc 98be c4bc 57fc 88bd 7aa1 19bc
000000f0: 5bf4 afbb 029e 8b3c e95b f73b 2432 fe3a
00000100: 3a21 c33b a106 f239 35af c1bc 20bb 873c
00000110: 5eda 25bd 8d57 76bd 4341 12bd 5dad 66b9
00000120: 35d6 e0bc 6403 723a 2563 a03c cf0f d63a
00000130: 7055 8dbd 085c 1abd cdbd 153c 94c5 aabc
00000140: 0679 8bbd fd51 06bc 7700 f1bb e78a 873c
00000150: d6b5 a5bb 8f71 0bbd 227a edbc df0e 48bd
00000160: 73f1 153b 9b3d 49bc 6698 4ebd 9167 3b3b
00000170: e7bf 01bd b07a 9e3c ecfb 4039 d6db 87bc
00000180: e185 0dbd ba1b f23c 732e 76bc dc3f 6abd
00000190: b7ca d9b9 012d 45bd a809 703c bc85 8bbc
000001a0: c0a8 48bd 519d 063c 6535 833c 6a3d 08bd
000001b0: 640b d9bc 5bc8 8dbd 4a6a 5d3c cd47 06bd
000001c0: 862d 66bc 74a4 79bc 6d0c b5bd 00c4 04bc
000001d0: f075 45bd f39d 59bc fb6d d4bc 35c6 b33c
000001e0: 122b fdbb 6560 56bd e8b8 0f3d ed7a 01bd
000001f0: d15a 1a3c 7a78 0bbd 5305 68bc 1753 47bc

fc2.weight f4 [64, 128]
-0.046474557 0.08287749 0.07059142 -0.010993391 0.0028583673 -0.16909775 0.056246903 -0.08699549
-0.12546176 0.20325136 0.09085986 -0.007917495 0.013752078 -0.08054535 0.10379938 0.050453786
0.13685362 -0.056491252 0.09979593 0.00446128 0.13023977 0.040511657 -0.18162511 -0.1317484
-0.047932442 -0.018141793 0.060040683 -0.08388947 0.08544737 0.09763315 0.1317202 -0.002491229
0.23019846 0.051344074 0.01583003 0.04748951 -0.04003041 -0.105268046 0.020283787 -0.052752722
-0.06487494 0.2480036 -0.029981693 0.064195566 -0.12133384 0.04257755 -0.037474677 0.19191411
0.15647765 -0.038521443 0.10247708 -0.059598766 -0.052252878 -0.025830714 -0.12716101 0.19110537
-0.1609702 0.0066044526 -0.066965476 -0.098391004 0.043328848 0.03698334 0.068310075 -0.01579206
0.21599613 0.19852348 -0.057733845 -0.057684265 -0.15615216 0.03590926 0.023232684 -0.13165641
0.15543973 -0.012044391 0.084624544 -0.018253535 -0.06764316 -0.013799906 0.089278296 -0.07679164
0.06923366 -0.09659149 -0.050164066 0.22476156 -0.01943063 0.03357996 0.022416594 0.034294825
0.07808859 0.1462181 0.036379248 0.101030625 -0.035191998 -0.18810585 -0.04469576 0.0022918624
-0.015615161 -0.0026403375 -0.030307183 -0.061179504 -0.20347963 0.065233365 0.18882285 0.06581241
0.050668277 0.24914351 -0.0458789 0.03901806 0.082451046 0.09111396 -0.1164833 -0.030358205
0.05246474 0.07871528 -0.16854195 -0.062674806 0.019729875 0.26170003 0.13951166 0.03045483
0.06221231 0.00011897368 0.11080714 -0.15128632 0.053748224 0.18762435 0.017110314 -0.034890622
-0.08511123 0.11295725 0.042093758 -0.11835531 0.09234579 -0.24912323 0.024480993 0.04771334
-0.14057212 -0.03529855 -0.020535998 -0.28222385 0.010051955 0.122784995 0.027025742 -0.043148372
0.18199433 -0.032670796 0.40697247 -0.030993404 0.045475878 0.023651496 -0.01202313 0.05097953
-0.08148291 -0.1263003 0.07361262 0.08957807 -0.3254843 -0.11067843 -0.03828862 -0.16466178
0.106150195 0.10732669 0.009972331 0.081174985 -0.06659569 -0.01355756 0.031571712 -0.07920998
0.086530924 0.146961 0.05503339 -0.0311337 0.008553286 -0.08638534 -0.038799208 0.070750386
0.047837526 -0.08877887 0.057961468 0.023644771 -0.0055043 0.051724717 -0.03321164 -0.03334062
-0.11799697 0.0900907 0.049276605 -0.19111979 0.009176467 -0.32942623 -0.00019784764 0.14940172
-0.15033635 0.096134216 -0.05464968 -0.09358872 0.0062020333 -0.07801668 0.037762076 -0.03364397
0.027513178 0.01852561 0.051764652 -0.022384208 -0.015753394 0.005386293 -0.039353915 -0.09270266
-0.019526357 0.0033862144 0.07696974 0.18148476 0.051704716 0.04063667 0.077894755 0.029499589
-0.108666524 0.0035811611 -0.114883125 -0.052705873 -0.057347033 0.005345865 -0.12328375 0.11486971
-0.04874775 0.04417773 -0.1819864 0.010025614 -0.033940766 -0.062505536 0.0920451 0.05828112
0.052249495 -0.083524846 0.030584756 0.08084825 -0.031867977 -0.25623593 -0.044248838 0.02620196
-0.1533696 -0.1201365 -0.0019984047 0.05659824 -0.121559806 -0.0010389673 -0.04325328 -0.20813257
-0.034717463 -0.05893365 0.03362457 0.1247799 -0.06882037 0.28455046 0.10318588 -0.02192097
00000000: 1b5c 3ebd acbb a93d 3c92 903d a01d 34bc
00000010: 7253 3b3b f627 2dbe 2763 663d b12a b2bd
00000020: 0c79 00be 2021 503e bc14 ba3d 62b8 01bc
00000030: 6550 613c f6f4 a4bd c594 d43d a1a8 4e3d
00000040: 5b23 0c3e 5f63 67bd cf61 cc3d ee2f 923b
00000050: 935d 053e 8def 253d effb 39be 0de9 06be
00000060: cf54 44bd 199e 94bc 38ed 753d 3ece abbd
00000070: 08ff ae3d e4f3 c73d a9e1 063e e343 23bb
00000080: 25b9 6b3e 2a4e 523d fbad 813c 5c84 423d
00000090: edf6 23bd c696 d7bd 2f2a a63c 3d13 58bd
000000a0: 27dd 84bd a8f4 7d3e 2b9c f5bc f778 833d
000000b0: e07d f8bd cc65 2e3d 0c7f 19bd 2285 443e
000000c0: ad3b 203e a9c8 1dbd 81df d13d d61d 74bd
000000d0: 1d07 56bd ef9a d3bc 7f36 02be 20b1 433e
000000e0: 5fd5 24be 2a6a d83b 3225 89bd 3981 c9bd
000000f0: 9779 313d d87b 173d 27e6 8b3d 5a5e 81bc
00000100: 172e 5d3e bd49 4b3e 537a 6cbd 5646 6cbd
00000110: 5ae6 1fbe 9715 133d 7852 be3c f0d0 06be
00000120: 982b 1f3e d655 45bc a24f ad3d 7088 95bc
00000130: 7f88 8abd 0019 62bc 8ad7 b63d ef44 9dbd
00000140: 61ca 8d3d c2d1 c5bd d678 4dbd e527 663e
00000150: fc2c 9fbc 248b 093d 01a3 b73c bb78 0c3d
00000160: e9ec 9f3d 33ba 153e 6802 153d 25e9 ce3d
00000170: 7c25 10bd d29e 40be e712 37bd 1233 163b
00000180: bbd6 7fbc 8309 2dbb c546 f8bc 5c97 7abd
00000190: f75c 50be 1299 853d c75a 413e a8c8 863d
000001a0: 8a89 4f3d 7a1f 7f3e 83eb 3bbd 67d1 1f3d
000001b0: 18dc a83d f599 ba3d cc8e eebd c5b1 f8bc
000001c0: 44e5 563d 7a35 a13d 4396 2cbe a65b 80bd
000001d0: 8ca0 a13c 8cfd 853e 25dc 0e3e 687c f93c
000001e0: 56d2 7e3d 8281 f938 dbee e23d cdea 1abe
000001f0: 1927 5c3d 9920 403e ee2a 8c3c 78e9 0ebd
00000200: cc4e aebd 2156 e73d 816a 2c3d 4564 f2bd
00000210: ca1f bd3d 291a 7fbe 5d8c c83c 106f 433d
00000220: 23f2 0fbe 3695 10bd 1c3b a8bc a57f 90be
00000230: f4b0 243c b376 fb3d 1765 dd3c 59bc 30bd
00000240: b95c 3a3e d0d1 05bd b25e d03e e1e5 fdbc
00000250: ea44 3a3d c8c0 c13c aafc 44bc e9cf 503d
00000260: 83e0 a6bd de54 01be 37c2 963d b574 b73d
00000270: e1a5 a6be 5fab e2bd 87d4 1cbd 199d 28be
00000280: 4665 d93d 18ce db3d fd62 233c 123f a63d
00000290: 5263 88bd 8720 5ebc 5751 013d d838 a2bd
000002a0: 2037 b13d f27c 163e b16a 613d 1a0c ffbc
000002b0: 1523 0c3c ccea b0bd ebeb 1ebd 94e5 903d
000002c0: 48f1 433d b2d1 b5bd 0169 6d3d aeb2 c13c
000002d0: 6a5d b4bb 4cdd 533d ee08 08bd 2d90 08bd
000002e0: 65a8 f1bd 7981 b83d 44d6 493d e8b4 43be
000002f0: e458 163c 8eaa a8be 5275 4fb9 c4fc 183e
00000300: c6f1 19be 04e2 c43d 58d8 5fbd 71ab bfbd
00000310: 6d3a cb3b 36c7 9fbd 68ac 1a3d 42ce 09bd
00000320: 5163 e13c 05c3 973c 2c07 543d 165f b7bc
00000330: 430d 81bc 807f b03b 9231 21bd e4da bdbd
00000340: bdf5 9fbc 40eb 5d3b 50a2 9d3d 24d7 393e
00000350: 53c8 533d a372 263d 4987 9f3d 1fa9 f13c
00000360: 8e8c debd eab1 6a3b d847 ebbd 1de2 57bd
00000370: b9e4 6abd 5e2c af3b 317c fcbd cf40 eb3d
00000380: b9ab 47bd b5f3 343d a55a 3abe 7942 243c
00000390: 7905 0bbd e702 80bd 2482 bc3d 2fb8 6e3d
000003a0: 9103 563d 130f abbd e28c fa3c c493 a53d
000003b0: ff87 02bd 5b31 83be 453e 35bd 7ea5 d63c
000003c0: ec0c 1dbe 200a f6bd abf7 02bb 8ed3 673d
000003d0: 59f4 f8bd f52d 88ba 5a2a 31bd b420 55be
000003e0: e633 0ebd 6964 71bd ebb9 093d 9b8c ff3d
000003f0: b2f1 8cbd 99b0 913e 1e53 d33d 9b93 b3bc

fc2.bias f4 [64]
-0.0032509079 0.009147281 0.03914485 0.21936263 -0.031503454 0.0037282722 0.027605861 0.07647514
0.14279859 0.082828626 0.112626985 0.038004555 -0.034043804 -0.046657093 0.16492794 0.1606628
-0.02259003 -0.14605679 0.14202033 0.09500216 0.10374118 0.031015504 0.1338713 0.2125016
0.102999575 -0.03299746 0.0021626705 0.086965986 0.087861754 0.08462381 0.1537782 0.0438143
0.17920983 -0.04666751 -0.009920438 -0.0071805045 0.1406878 -0.103572406 -0.0015513386 0.12952285
0.07753971 -0.04848598 0.13866547 0.110036455 0.0364969 -0.044309538 0.017780539 -0.05671623
0.1414281 0.06654568 0.042999774 0.053305373 -0.051772118 0.0790732 0.037729837 -0.018447746
-0.029086528 0.18894263 -0.02222402 -0.10791769 -0.059540197 0.017009554 0.09690153 0.16982299
00000000: 2f0d 55bb 7ade 153c 5a56 203d 99a0 603e
00000010: c409 01bd 0756 743b b025 e23c 009f 9c3d
00000020: cb39 123e 0ea2 a93d faa8 e63d aaaa 1b3d
00000030: 8471 0bbd 821b 3fbd dfe2 283e ca84 243e
00000040: ba0e b9bc e98f 15be c76d 113e 7e90 c23d
00000050: 4176 d43d 3a14 fe3c 8f15 093e 059a 593e
00000060: 71f1 d23d 5828 07bd 97bb 0d3b 391b b23d
00000070: ddf0 b33d 404f ad3d 0878 1d3e a076 333d
00000080: c882 373e 6e26 3fbd 5589 22bc 704a ebbb
00000090: 7610 103e c51d d4bd 4956 cbba a3a1 043e
000000a0: 24cd 9e3d 3c99 46bd 52fe 0d3e cb5a e13d
000000b0: c67d 153d eb7d 35bd 7ea8 913c 474f 68bd
000000c0: 87d2 103e 1a49 883d 8820 303d bc56 5a3d
000000d0: 000f 54bd 21f1 a13d 9a8a 1a3d ba1f 97bc
000000e0: df46 eebc 2d7a 413e 260f b6bc f303 ddbd
000000f0: 6ce0 73bd 9f57 8b3c 4f74 c63d 14e6 2d3e

fc3.weight f4 [10, 64]
-0.1785782 -0.007936334 0.023920245 -0.22999826 0.095885016 -0.12824897 -0.2642131 -0.29594025
0.18651266 0.01988278 -0.012380885 0.03847995 0.12970357 -0.11988099 -0.09873848 -0.20220871
-0.22797544 0.13056931 0.13162568 -0.17799248 0.085200846 0.16733056 0.10967913 0.056504283
-0.24720977 0.116404586 -0.14933729 -0.13799474 0.14449026 -0.18734133 0.086825915 -0.28952804
-0.20967183 0.13954121 -0.15769386 0.13364473 0.057645034 0.19304372 0.19261312 0.062582985
-0.2150791 0.12810382 0.15139213 0.13352266 0.13532384 -0.06831582 -0.3706321 -0.34801856
0.082888834 0.030475074 -0.26480833 0.15467381 0.16781864 -0.41455686 -0.12982339 -0.05229357
-0.21030308 0.14692439 0.057791833 -0.13006383 -0.23128666 -0.24474937 -0.09581693 0.070517905
-0.0016584803 -0.09012955 -0.19760202 0.10662553 0.06363625 0.17698471 -0.23015569 0.02871293
0.20647782 0.008418185 -0.30029958 -0.3020893 0.028227685 -0.121221 -0.16141988 0.13067378
0.27551278 -0.06695955 -0.40376464 0.09643848 -0.21502025 -0.061485447 -0.15169741 -0.00041549394
-0.23948203 -0.21779993 0.1678661 0.10171698 -0.27535313 0.10650968 -0.121868454 -0.02522715
-0.11437854 -0.03136928 0.19703782 -0.44934088 -0.19985805 -0.0068067987 -0.11598921 -0.32453278
0.12204136 -0.24511528 -0.12841678 -0.30949304 -0.24097465 -0.09173017 0.14270611 0.0007093119
-0.085883 0.12717381 -0.15956765 -0.114040375 -0.26706785 0.121365584 0.18546946 0.06464044
0.2257056 -0.0056004575 -0.27759346 0.13885932 0.22678599 0.19507103 -0.3744021 0.11412947
0.052995775 0.15017375 -0.13621311 0.08667778 0.09585285 0.14412707 -0.22245732 -0.044742264
0.11527718 0.1195825 0.16079685 0.010169482 -0.009883049 0.08902176 -0.18933353 -0.13433705
-0.07005389 0.05155234 -0.22942118 0.09235513 -0.11115988 0.19703028 -0.025167724 0.022940192
-0.07810712 0.15663674 0.0056539476 0.14401567 0.08673632 0.05765282 -0.15397486 0.15422484
-0.13266787 0.24980234 -0.047646172 -0.08257857 0.049466778 0.24022269 -0.19833183 0.11581391
0.07819852 -0.25696543 -0.17969878 -0.15062532 0.05662426 0.11404182 0.1566753 -0.07526829
-0.2293012 0.115525275 -0.046085913 0.11321086 -0.2883645 -0.39313734 -0.4129511 0.13732451
-0.15021653 0.11555133 -0.1296619 -0.1651458 -0.1702752 -0.1911232 0.023583304 -0.12148004
0.07710629 0.13859361 0.21752994 0.04883545 0.12021527 -0.0054150242 0.12460206 0.13273403
0.053263277 -0.09189169 -0.09154931 -0.111326404 0.1442811 -0.29888305 0.1334466 -0.06135574
-0.3394104 0.10966545 -0.1896415 0.041963257 0.09510188 -0.089791775 -0.22595565 0.07994232
-0.14705564 -0.11655557 -0.17830984 0.09578003 0.029873135 0.122040145 -0.2186207 0.1502615
-0.14719446 -0.14438176 0.07868671 0.16791801 0.09532911 -0.18644944 -0.23936574 0.09555182
-0.10490398 -0.07424223 -0.13576321 -0.20366128 0.12335956 0.18638536 0.1403272 0.1935818
-0.21193196 0.01889593 -0.14440094 0.01519987 0.10191517 0.06820133 0.09068427 0.09576599
-0.104347914 -0.12552881 0.11373682 0.10263335 -0.29604688 0.086831644 -0.09049586 -0.07145621
00000000: 34dd 36be 6607 02bc 64f4 c33c aa84 6bbe
00000010: 5d5f c43d b353 03be f046 87be 7b85 97be
00000020: 2dfd 3e3e 36e1 a23c 32d9 4abc 279d 1d3d
00000030: 03d1 043e 2a84 f5bd 6637 cabd cd0f 4fbe
00000040: 6572 69be f6b3 053e e2c8 063e a943 36be
00000050: c87d ae3d b458 2b3e 749f e03d 0971 673d
00000060: 8f24 7dbe 8765 ee3d e0eb 18be 7e4e 0dbe
00000070: 41f5 133e 68d6 3fbe c9d1 b13d 053d 94be
00000080: 36b4 56be e4e3 0e3e 807a 21be 2ada 083e
00000090: 331d 6c3d 41ad 453e 603c 453e 822b 803d
000000a0: b23d 5cbe a62d 033e 8a06 1b3e 2aba 083e
000000b0: 5592 0a3e 2ae9 8bbd 7ec3 bdbe 7d2f b2be
000000c0: 9fc1 a93d dda6 f93c f594 87be d062 1e3e
000000d0: a6d8 2b3e cc40 d4be 6cf0 04be c831 56bd
000000e0: b159 57be 5973 163e 21b7 6c3d 742f 05be
000000f0: 69d6 6cbe 949f 7abe ab3b c4bd b16b 903d
00000100: 5d61 d9ba d795 b8bd 2f58 4abe 7c5e da3d
00000110: b953 823d 7b3b 353e efad 6bbe 6137 eb3c
00000120: ec6e 533e 6dec 093c dec0 99be 73ab 9abe
00000130: bf3d e73c b742 f8bd 414b 25be 59cf 053e
00000140: 0310 8d3e 1722 89bd 3dba cebe 8a81 c53d
00000150: 452e 5cbe 2ad8 7bbd 9156 1bbe a7d6 d9b9
00000160: c73a 75be f206 5fbe 17e5 2b3e fe50 d03d
00000170: 16fb 8cbe bf21 da3d 2b96 f9bd 2ba9 cebc
00000180: 4c3f eabd 137d 00bd 48c4 493e 0210 e6be
00000190: 97a7 4cbe 910b dfbb c08b edbd 2929 a6be
000001a0: d2f0 f93d 80ff 7abe b07f 03be df75 9ebe
000001b0: 0fc2 76be 07dd bbbd 8d21 123e 1ef1 393a
000001c0: 6de3 afbd da39 023e b465 23be 008e e9bd
000001d0: 1ebd 88be 858e f83d b5eb 3d3e 3562 843d
000001e0: 5e1f 673e 0b84 b7bb bb20 8ebe 2331 0e3e
000001f0: 963a 683e b3c0 473e a2b1 bfbe b6bc e93d
00000200: 1912 593d 26c7 193e 737b 0bbe 1f84 b13d
00000210: 804e c43d 0c96 133e dacb 63be aa43 37bd
00000220: 7116 ec3d abe7 f43d eea7 243e e69d 263c
00000230: 83ec 21bc 0a51 b63d a6e0 41be a78f 09be
00000240: 6a78 8fbd 8c28 533d 63ed 6abe b024 bd3d
00000250: cba7 e3bd 4ec2 493e 8b2c cebc 12ed bb3c
00000260: a0f6 9fbd 6265 203e c044 b93b d878 133e
00000270: d0a2 b13d 5d25 6c3d 96ab 1dbe 1eed 1d3e
00000280: 16da 07be 2fcc 7f3e a228 43bd f41e a9bd
00000290: ad9d 4a3d f0fc 753e 8017 4bbe d82f ed3d
000002a0: 8c26 a03d f990 83be f502 38be 863d 1abe
000002b0: d7ee 673d c28e e93d 7d6f 203e 4326 9abd
000002c0: efcd 6abe 8498 ec3d 95c4 3cbd 18db e73d
000002d0: 83a4 93be 4c49 c9be 546e d3be cc9e 0c3e
000002e0: 5dd2 19be 2da6 ec3d 17c6 04be fb1b 29be
000002f0: 9f5c 2ebe cdb5 43be c631 c13c 87ca f8bd
00000300: e7e9 9d3d 7ceb 0d3e 2bc0 5e3e ae07 483d
00000310: 6c33 f63d 8470 b1bb 5d2f ff3d 6eeb 073e
00000320: 982a 5a3d b631 bcbd 347e bbbd 19ff e3bd
00000330: 6dbe 133e 3307 99be 3aa6 083e 2850 7bbd
00000340: 33c7 adbe 4898 e03d 6231 42be aae1 2b3d
00000350: c6c4 c23d c0e4 b7bd eb60 67be cdb8 a33d
00000360: c195 16be b0b4 eebd db96 36be 5228 c43d
00000370: 81b8 f43c 2ff0 f93d 1bde 5fbe 27de 193e
00000380: 25ba 16be d0d8 13be 7f26 a13d b3f2 2b3e
00000390: e93b c33d 9aec 3ebe 4b1c 75be acb0 c33d
000003a0: e6d7 d6bd 4f0c 98bd 8305 0bbe 958c 50be
000003b0: f0a3 fc3d cedb 3e3e efb1 0f3e 4f3a 463e
000003c0: b104 59be a3cb 9a3c d7dd 13be e008 793c
000003d0: e7b8 d03d 24ad 8b3d adb8 b93d f620 c43d
000003e0: 5cb4 d5bd a08a 00be daee e83d 6f31 d23d
000003f0: 7593 97be cad4 b13d e555 b9bd a257 92bd

fc3.bias f4 [10]
0.029235631 -0.06948983 0.037330925 -0.15623426 0.005117107 -0.09205992 0.035816446 -0.059056625
0.25726205 0.058400143
00000000: 907f ef3c af50 8ebd 50e8 183d e0fb 1fbe
00000010: 68ad a73b e989 bcbd 44b4 123d 5ce5 71bd
00000020: dab7 833e fd34 6f3d
